…
To enable them in other operations, rebuild TensorFlow with the appropriate compiler flags.
2023-01-23 16:19:47.185723: I tensorflow/core/common_runtime/gpu/gpu_device.cc:1616] Created device /job:localhost/replica:0/task:0/device:GPU:0 with 9426 MB memory:  -> device: 0, name: NVIDIA GeForce RTX 3080 Ti, pci bus id: 0000:01:00.0, compute capability: 8.6

Model: "sequential"
_________________________________________________________________
 Layer (type)                Output Shape              Param #
=================================================================
 conv2d (Conv2D)             (None, 28, 28, 128)       1280

 dropout (Dropout)           (None, 28, 28, 128)       0

 batch_normalization (BatchN  (None, 28, 28, 128)      512
 ormalization)

 conv2d_1 (Conv2D)           (None, 28, 28, 64)        73792

 dropout_1 (Dropout)         (None, 28, 28, 64)        0

 batch_normalization_1 (Batc  (None, 28, 28, 64)       256
 hNormalization)

 flatten (Flatten)           (None, 50176)             0

 dense (Dense)               (None, 4096)              205524992

 dropout_2 (Dropout)         (None, 4096)              0

 dense_1 (Dense)             (None, 256)               1048832

 dropout_3 (Dropout)         (None, 256)               0

 dense_2 (Dense)             (None, 26)                6682

=================================================================
Total params: 206,656,346
Trainable params: 206,655,962
Non-trainable params: 384
_________________________________________________________________
Epoch 1/10
2023-01-23 16:19:49.003014: I tensorflow/stream_executor/cuda/cuda_dnn.cc:384] Loaded cuDNN version 8100
2023-01-23 16:19:50.043045: I tensorflow/stream_executor/cuda/cuda_blas.cc:1614] TensorFloat-32 will be used for the matrix multiplication. This will only be logged once.
…
